packages/hotword/model/hai_yoo_mee.onnx (onnx, 206810 bytes, 9 tensors)

layer1.weight f4 [32, 1536]
-0.0008616114 -0.02400945 -0.017696315 -0.021629386 0.03092179 -0.021355858 -0.02833931 -0.02891217
-0.0055432026 0.027871374 0.0036157651 0.008660204 0.011844137 0.0035972374 -0.009811777 0.008752412
0.009357724 0.02506505 -0.027462017 -0.024878768 -0.001680342 0.018658418 -0.021350427 -0.018882232
-0.0031355426 -0.013743377 0.0063194404 -0.02190251 -0.011344233 -0.004933418 -0.004282092 0.004615764
0.010308325 0.010142826 0.0053108432 -0.01969612 0.015055124 -0.021596482 -0.0047629317 0.0016195308
0.012191423 -0.003963847 0.017244829 0.013853271 -0.003592429 -0.028132902 -0.012871762 0.01426327
0.012182059 -0.0042835795 0.013286513 -0.024645392 -0.02191835 0.011415961 0.009196952 -0.020569682
-0.0006161027 0.011650813 0.016388908 0.009779424 -0.016451264 -0.001738488 0.0116406 0.023844562
-0.009206189 -0.014718874 0.029400941 0.015000938 -0.0007722761 0.016611235 0.014509494 -0.0012382838
0.022972064 -0.015916545 0.008496164 -0.010017557 0.011189407 0.01701795 0.024737796 -0.026162459
0.009272832 0.0022456842 -0.009352855 0.023686137 -0.0054426156 -0.01679745 0.0119458595 -0.011232403
-0.009634195 -0.010772008 0.03252851 -0.007243758 0.007333766 -0.014246597 0.005295731 0.01202503
0.003174525 0.016074358 0.016865103 -0.006875213 -0.00023077225 0.0012708642 -0.0068794624 0.011614877
-0.025591495 -0.02113975 -0.023970626 0.021278353 0.013029216 0.022431195 -0.014111654 0.010959785
-0.02741905 -0.0071859392 -0.024221877 0.017923305 -0.011832331 -0.0003465066 0.004105333 -0.026785867
-0.0070670885 0.014991814 -0.02538421 -0.016822133 0.008643777 0.0026523047 0.013094254 0.0043209866
0.0004322094 0.01429326 -0.013946667 -0.0047494136 -0.024492517 0.01535641 0.008564671 0.0042972984
-0.010936644 -0.0096057085 -0.006418377 0.016800849 0.013885062 0.01818552 0.023002548 -0.0011300785
-0.0052648014 0.026527146 -0.007660351 0.00021311366 0.008978715 0.018146731 -0.00038179324 -0.0052407514
0.0006811255 0.0047379932 -0.0076014125 0.0005847432 0.0028977136 -0.02214656 0.011681487 0.008517182
-0.024052622 -0.0014315726 0.032444406 -0.0023111 0.020659316 -0.016139187 -0.013201453 -0.015815178
0.003237176 0.003764958 -0.0055288817 0.032351382 0.033749577 -0.0026006694 -0.007882069 0.021779398
0.008152913 -0.018489735 0.0023731673 -0.019355955 -0.0019226215 -0.0005754899 -0.008015627 -0.018168012
0.011842413 0.0021823114 -0.00068133784 -0.0038662562 0.024323069 -0.022008412 -0.0051042 0.016680636
0.011518432 -0.024358258 -0.00875218 -0.013230973 -0.005064226 -0.0067810337 0.027252203 0.0035668644
-0.010194782 -0.02214018 -0.010632946 -0.0068812533 0.012957875 0.013312501 -0.007729415 -0.00037910548
0.0005245112 0.027530113 0.012918885 -0.019475369 0.013608236 0.0055577853 -0.008619519 0.0022851385
0.012831847 -0.012335666 -0.013889909 0.021994937 -0.013507035 0.020804081 0.004899943 0.005765963
0.0024921498 -0.022044977 -0.016480457 -0.010400878 0.01905145 -0.009051726 0.0027295607 -0.023455607
-0.014720788 0.008527549 -0.026823118 0.010240145 -0.011560016 -0.0064718565 -0.0077070566 -0.0048185177
-0.023171136 0.009962923 -0.004115457 0.027528271 -0.018505184 -0.02129639 0.014610055 -0.0029413688
-0.009947812 0.013637475 0.0032837219 -0.022274962 0.02416927 0.006114307 0.023400713 -0.00084857584
00000000: c3dd 61ba 77af c4bc ddf7 90bc 1c30 b1bc
00000010: b24f fd3c 7bf2 aebc d727 e8bc 37d9 ecbc
00000020: c1a3 b5bb 8252 e43c 79f6 6c3b 87e3 0d3c
00000030: e90d 423c a1bf 6b3b 93c1 20bc 4766 0f3c
00000040: 2451 193c 3855 cd3c 06f8 e0bc 8fce cbbc
00000050: ec3e dcba 8ad9 983c 17e7 aebc e9ae 9abc
00000060: ad7d 4dbb e72b 61bc 4f13 cf3b e56c b3bc
00000070: 29dd 39bc 82a8 a1bb cb50 8cbb d63f 973b
00000080: 40e4 283c 182e 263c 9506 ae3b c259 a1bc
00000090: c4a9 763c 1beb b0bc 5e12 9cbb 7046 d43a
000000a0: 89be 473c 29e3 81bb 0745 8d3c d4f8 623c
000000b0: f56e 6bbb f976 e6bc 15e4 52bc 7eb0 693c
000000c0: 4297 473c 455d 8cbb adaf 593c 22e5 c9bc
000000d0: 1d8e b3bc 030a 3b3c d0ae 163c c081 a8bc
000000e0: f481 21ba 0de3 3e3c 0842 863c e139 203c
000000f0: cdc4 86bc fadd e3ba 37b8 3e3c ac55 c33c
00000100: 8ed5 16bc 6f27 71bc 3eda f03c 7fc6 753c
00000110: 9272 4aba 4914 883c 3bb9 6d3c e94d a2ba
00000120: e92f bc3c 6a63 82bc 7f33 0b3c ae20 24bc
00000130: c653 373c 3a69 8b3c eba6 ca3c a752 d6bc
00000140: 14ed 173c 542c 133b b83c 19bc 6e09 c23c
00000150: f857 b2bb ce9a 89bc 91b8 433c 1d08 38bc
00000160: bed8 1dbc 147d 30bc 9d3c 053d 0c5d edbb
00000170: 1750 f03b 8f6a 69bc d087 ad3b a204 453c
00000180: b10b 503b 5fae 833c af28 8a3c 7749 e1bb
00000190: 74fb 71b9 2093 a63a 1d6d e1bb 534c 3e3c
000001a0: 41a5 d1bc 452d adbc 0c5e c4bc f14f ae3c
000001b0: 7e78 553c a0c1 b73c 9134 67bc ac90 333c
000001c0: ea9d e0bc 0778 ebbb f56c c6bc e5d3 923c
000001d0: 65dc 41bc 54ab b5b9 0786 863b 096e dbbc
000001e0: 0993 e7bb 3aa0 753c 8cf2 cfbc 92ce 89bc
000001f0: a19e 0d3c 4ad2 2d3b 4889 563c 1097 8d3b
00000200: 2a9a e239 472e 6a3c 9080 64bc f8a0 9bbb
00000210: 88a4 c8bc 7499 7b3c d552 0c3c 5ad0 8c3b
00000220: 9c2f 33bc 4361 1dbc 4051 d2bb efa1 893c
00000230: 2c7e 633c cdf9 943c d76f bc3c 241f 94ba
00000240: 5b84 acbb 754f d93c af03 fbbb 4377 5f39
00000250: 761b 133c 74a8 943c 6c2b c8b9 9cba abbb
00000260: 8f8d 323a 2b41 9b3b 4515 f9bb 7449 193a
00000270: 91e7 3d3b b46c b5bc b563 3f3c a78b 0b3c
00000280: 010a c5bc 9ba3 bbba 6de4 043d d375 17bb
00000290: ba3d a93c 5436 84bc e84a 58bc d58e 81bc
000002a0: cd26 543b 83bd 763b 9f2b b5bb e282 043d
000002b0: ff3c 0a3d fe6f 2abb cb23 01bc b56a b23c
000002c0: cc93 053c c977 97bc 2487 1b3b 6190 9ebc
000002d0: 7900 fcba 79dc 16ba fa53 03bc 15d5 94bc
000002e0: ae06 423c 1c05 0f3b cf9b 32ba 0461 7dbb
000002f0: 2c41 c73c fc4a b4bc 2241 a7bb d4a5 883c
00000300: ceb7 3c3c f88a c7bc 4e65 0fbc b9c6 58bc
00000310: cff1 a5bb 6f33 debb 0340 df3c 0ec2 693b
00000320: 0408 27bc 535f b5bc cf35 2ebc 237c e1bb
00000330: 444d 543c ad1c 5a3c 0847 fdbb adc2 c6b9
00000340: 5a7f 093a d586 e13c bba9 533c cf8a 9fbc
00000350: 14f5 5e3c 151e b63b e238 0dbc 43c2 153b
00000360: ab3c 523c 891b 4abc 8092 63bc ba2e b43c
00000370: 9c4c 5dbc 526d aa3c b38f a03b 67f0 bc3b
00000380: 5653 233b ab97 b4bc 0602 87bc 7268 2abc
00000390: c911 9c3c b14d 14bc 6ee2 323b f925 c0bc
000003a0: 762f 71bc 22b7 0b3c 28bc dbbc 48c6 273c
000003b0: 3966 3dbc de11 d4bb 7a8b fcbb a8e4 9dbb
000003c0: 65d1 bdbc 873b 233c f5da 86bb f882 e13c
000003d0: 2f98 97bc c475 aebc 035f 6f3c fbc3 40bb
000003e0: 26fc 22bc b76f 5f3c b633 573b fb79 b6bc
000003f0: a2fe c53c 865a c83b dab2 bf3c f672 5eba

layer1.bias f4 [32]
-0.017086986 -0.008079163 -0.016505271 -0.007535907 -0.02005203 -0.00031464087 0.017485619 -0.026673388
-0.0061390135 0.02231365 -0.00759977 0.014492683 -0.00900966 -0.018971162 -0.012169472 0.015440761
-0.008530206 0.0006600526 -0.003762581 0.019862076 0.02179928 0.009992039 0.011263543 -0.014476219
-0.017232507 0.014536197 0.017574817 -0.00524533 -0.011467714 -0.023540957 0.008288268 -0.026236929
00000000: 02fa 8bbc 775e 04bc 1036 87bc c5ef f6bb
00000010: 2844 a4bc 62f6 a4b9 003e 8f3c 2682 dabc
00000020: c729 c9bb 1ecb b63c 7e07 f9bb b872 6d3c
00000030: 419d 13bc 6969 9bbc 7762 47bc 3ffb 7c3c
00000040: 47c2 0bbc 6107 2d3a a295 76bb cbb5 a23c
00000050: 6794 b23c a6b5 233c b98a 383c aa2d 6dbc
00000060: 302b 8dbc 3b29 6e3c 10f9 8f3c 04e1 abbb
00000070: 14e3 3bbc f7d8 c0bc 84cb 073c d4ee d6bc

layernorm1.weight f4 [32]
0.98312557 0.99734586 1.0157622 0.9949828 0.99727446 0.9810674 0.976913 0.95011955
0.98260355 0.98412097 0.9533907 0.9681999 1.014256 0.9851029 1.0050764 1.0089154
0.98632026 1.0198783 1.0004889 0.9823004 1.0027046 0.9791539 0.9872235 1.0260762
0.992008 0.98783064 1.0377111 0.9957487 0.9862914 0.97195023 0.9942096 1.0264803
00000000: 1eae 7b3f 0f52 7f3f 7f04 823f 31b7 7e3f
00000010: 614d 7f3f 3c27 7b3f f816 7a3f 093b 733f
00000020: e88b 7b3f 5aef 7b3f 6a11 743f f3db 773f
00000030: 24d3 813f b42f 7c3f 58a6 803f 2424 813f
00000040: 7c7f 7c3f 5f8b 823f 0510 803f 0a78 7b3f
00000050: a058 803f d4a9 7a3f aeba 7c3f 7756 833f
00000060: 3cf4 7d3f 78e2 7c3f b8d3 843f 63e9 7e3f
00000070: 987d 7c3f bbd1 783f 8584 7e3f b563 833f

layernorm1.bias f4 [32]
-0.013066134 -0.0135284355 0.008415123 -0.0110188285 -0.012696758 0.0028887712 -0.021903615 -0.056567807
0.019486027 0.03261253 -0.036077444 -0.03233546 0.0094798505 -0.017521888 0.0254025 -0.0027149848
0.006675275 0.008750478 0.011610624 -0.013058036 0.008075482 -0.049849946 -0.010232633 0.031626962
-0.0061527593 -0.008866768 0.00628082 -0.014402505 -0.017531311 0.028786713 -0.014031951 0.0042769546
00000000: 5713 56bc 5fa6 5dbc 96df 093c 5188 34bc
00000010: 1006 50bc 8a51 3d3b 366f b3bc a5b3 67bd
00000020: 29a1 9f3c b794 053d f1c5 13bd 3072 04bd
00000030: 6051 1b3c 108a 8fbc e718 d03c e3ed 31bb
00000040: 44bc da3b 2a5e 0f3c 7d3a 3e3c 5ff1 55bc
00000050: 074f 043c 752f 4cbd c6a6 27bc 468b 013d
00000060: 169d c9bb ec45 11bc 56cf cd3b 7cf8 6bbc
00000070: d39d 8fbc 1dd2 eb3c 45e6 65bc b225 8c3b

blocks.0.fcn_layer.weight f4 [32, 32]
-0.050885938 -0.10467842 0.084693365 -0.10141438 0.14240205 0.03333495 -0.096761644 0.18251476
0.016452884 0.123539396 0.13739952 -0.062190954 -0.039178196 -0.12666799 -0.12889266 -0.038585752
-0.1189682 -0.14331084 0.12345511 -0.13621055 -0.011305756 0.08557308 -0.108316705 -0.10962623
0.16722998 -0.14665295 0.18111897 -0.15309249 0.05601628 -0.05254659 0.016444888 0.08166261
0.015688617 0.0069865007 -0.1456706 0.08861531 0.07924703 0.099134624 -0.07108363 -0.0029355143
-0.042395584 -0.081265815 -0.06605026 0.09457103 0.059951942 0.073681 0.043014947 -0.13960843
-0.13043417 0.08383795 -0.115783796 0.006271105 0.02781445 0.09358974 0.12841024 0.18041638
0.054251857 0.13030614 -0.114903234 0.08531101 0.12279882 0.0021026628 0.09712269 0.07274796
0.12566029 0.11197033 -0.13781694 -0.038494747 0.031282406 -0.11442432 0.001116914 -0.13518524
0.16350324 0.041044552 -0.075746424 0.08228762 0.14583538 0.15460758 0.019892454 -0.04291403
0.07637747 -0.21537359 0.06075848 -0.037398353 -0.024792055 0.07994948 0.13960263 0.09680125
0.084010646 0.10094966 -0.11147569 0.171903 -0.06496038 0.14271334 -0.15511867 0.19897765
-0.11654604 -0.054294173 -0.11335816 0.12924863 0.0075955577 0.035964623 0.004810266 0.0050821
0.08595251 0.13610326 0.058887552 -0.13023701 -0.09054774 0.015744483 -0.10455883 -0.016040169
-0.16973327 -0.0600079 0.013837602 -0.06945822 -0.12954326 -0.15754175 0.06843648 -0.13256392
0.06527425 -0.15562013 0.10608286 -0.167906 0.11495296 -0.12851949 0.070786245 -0.017203307
0.053022232 -0.14961822 0.09269499 0.053629793 -0.08218635 -0.13270399 -0.0913683 -0.13116755
0.123937294 0.018087786 0.042797692 -0.061088998 0.19139694 0.01564511 -0.09850299 0.08366035
-0.050429747 0.17145433 -0.14260793 0.08798094 -0.032038797 0.12509423 -0.008450366 -0.12757373
0.0084316945 0.19233139 3.640155e-05 0.10595124 -0.1529476 0.06567549 0.02303977 0.02590221
0.09416446 0.039692238 0.13712345 -0.120528184 0.1292807 -0.07515124 0.15647204 -0.16362923
-0.1213761 -0.07377879 0.03748168 -0.06768869 0.080394395 0.16962583 0.07469129 -0.06385234
-0.042952448 0.12822549 0.12252917 0.10737375 0.15605581 -0.15280306 -0.052894045 -0.109823026
-0.025328541 0.04045056 0.08414183 0.029884398 -0.12004503 0.028540863 -0.07395543 -0.12906808
0.028280716 -0.11504928 -0.001063728 0.11469746 0.04850691 -0.07842505 -0.14373456 -0.027530476
0.08545291 0.20500799 0.066289045 -0.017271016 0.11372754 -0.15545711 0.016109621 0.08037865
-0.05585417 -0.10480946 0.025268642 0.10094293 0.05837696 0.110646576 -0.08643862 0.16865973
-0.038756512 0.1420222 -0.14313641 -0.0925378 0.02701209 -0.067339435 0.04817697 0.18250662
0.007116554 -0.06030135 -0.10967073 -0.06462642 -0.010380716 0.024486719 -0.12286459 -0.07456255
0.09233924 0.005931767 0.21759008 0.08980531 0.16189197 -0.020662 0.04365313 0.16905104
-0.050570518 -0.04873242 -0.023306603 -0.099922046 0.06271876 0.18388344 0.03100358 -0.10039506
0.104958534 0.101274 -0.009888158 -0.12356034 0.1707185 0.024083503 -0.106825866 -0.09441808
00000000: c66d 50bd a461 d6bd b773 ad3d 58b2 cfbd
00000010: d8d1 113e 3b8a 083d f82a c6bd 26e5 3a3e
00000020: 33c8 863c 3902 fd3d 76b2 0c3e f1bb 7ebd
00000030: 5179 20bd 41b5 01be 70fc 03be 180c 1ebd
00000040: 9aa5 f3bd 14c0 12be 08d6 fc3d c77a 0bbe
00000050: c73b 39bc f040 af3d 26d5 ddbd b883 e0bd
00000060: 563e 2b3e 312c 16be 4077 393e 47c4 1cbe
00000070: 5471 653d 183b 57bd 6eb7 863c ba3e a73d
00000080: 6a85 803c 04ef e43b ac2a 15be f27b b53d
00000090: 444c a23d 1807 cb3d 4b94 91bd c261 40bb
000000a0: fea6 2dbd b16e a6bd 5c45 87bd 75ae c13d
000000b0: 2b90 753d 10e6 963d 7130 303d 83f5 0ebe
000000c0: 8990 05be 3bb3 ab3d 0e20 edbd d77d cd3b
000000d0: 21db e33c faab bf3d f97d 033e 12bf 383e
000000e0: 3237 5e3d f96e 053e 6352 ebbd 8ab7 ae3d
000000f0: f37d fb3d d4cc 093b 43e8 c63d e2fc 943d
00000100: 17ad 003e b350 e53d e21f 0dbe abac 1dbd
00000110: fb21 003d 4c57 eabd 6a65 923a 006e 0abe
00000120: 656d 273e 551e 283d f120 9bbd 6986 a83d
00000130: df55 153e 7351 1e3e 80f5 a23c 9fc6 2fbd
00000140: ca6b 9c3d e58a 5cbe e2dd 783d 042f 19bd
00000150: b518 cbbc 8ebc a33d fef3 0e3e bc3f c63d
00000160: c60d ac3d b2be ce3d 5e4d e4bd 5707 303e
00000170: f309 85bd 7223 123e 6ed7 1ebe ccc0 4b3e
00000180: b1af eebd 9163 5ebd 5328 e8bd c159 043e
00000190: 28e4 f83b a44f 133d 709f 9d3b bf87 a63b
000001a0: df07 b03d a75e 0b3e 1334 713d da5c 05be
000001b0: 1871 b9bd 93fa 803c f122 d6bd ac66 83bc
000001c0: 8fce 2dbe d8ca 75bd 1cb7 623c 1c40 8ebd
000001d0: fda6 04be a052 21be 6d28 8c3d d6be 07be
000001e0: 82ae 853d e25a 1fbe f841 d93d 8def 2bbe
000001f0: 756c eb3d 9d9a 03be 61f8 903d f3ed 8cbc
00000200: d72d 593d 8535 19be dfd6 bd3d eaaa 5b3d
00000210: 5151 a8bd 8ee3 07be 4e1f bbbd c950 06be
00000220: d6d2 fd3d d62c 943c a24c 2f3d 7538 7abd
00000230: 8ffd 433e 2c2a 803c f0bb c9bd 1e56 ab3d
00000240: 6c8f 4ebd b991 2f3e d007 12be 5a2f b43d
00000250: 1d3b 03bd b418 003e 6773 0abc b0a2 02be
00000260: 1725 0a3c 85f2 443e dead 1838 f7fc d83d
00000270: 4c9e 1cbe df80 863d e6bd bc3c df30 d43c
00000280: 4cd9 c03d 5494 223d 176a 0c3e 7bd7 f6bd
00000290: 2962 043e e5e8 99bd 353a 203e 6c8e 27be
000002a0: 0894 f8bd 5619 97bd 6486 193d 5ea0 8abd
000002b0: d1a5 a43d 65b2 2d3e bff7 983d 04c5 82bd
000002c0: e8ee 2fbd 8b4d 033e 93f0 fa3d c5e6 db3d
000002d0: 18cd 1f3e 6878 1cbe 6da7 58bd e5ea e0bd
000002e0: cd7d cfbc 7daf 253d 8d52 ac3d 20d0 f43c
000002f0: 2bda f5bd 87ce e93c f275 97bd 6c2a 04be
00000300: f6ac e73c f59e ebbd ca6c 8bba 80e6 ea3d
00000310: 2faf 463d 509d a0bd 272f 13be 9887 e1bc
00000320: ef01 af3d 9ded 513e 8dc2 873d f27b 8dbc
00000330: fce9 e83d 2630 1fbe 53f8 833c 909d a43d
00000340: 58c7 64bd 58a6 d6bd 2f00 cf3c 2bbb ce3d
00000350: ae1c 6f3d ac9a e23d bb06 b1bd 23b5 2c3e
00000360: 26bf 1ebd 456e 113e 5a92 12be 7584 bdbd
00000370: 7548 dd3c 42e9 89bd 3755 453d 04e3 3a3e
00000380: fb31 e93b 8cfe 76bd 0c9b e0bd db5a 84bd
00000390: e113 2abc 5f98 c83c 6ea0 fbbd 40b4 98bd
000003a0: 5b1c bd3d 455f c23b efcf 5e3e d9eb b73d
000003b0: 02c7 253e 5b43 a9bc a0cd 323d b71b 2d3e
000003c0: 0823 4fbd a59b 47bd 7ded bebc eea3 ccbd
000003d0: b172 803d f14b 3c3e 38fb fd3c ed9b cdbd
000003e0: 80f4 d63d be68 cf3d f101 22bc 340d fdbd
000003f0: d5d0 2e3e c44a c53c 85c7 dabd 445e c1bd

blocks.0.fcn_layer.bias f4 [32]
-0.1267968 0.1306673 0.1176674 0.123180024 0.092450455 0.13987851 -0.03399659 -0.11196656
-0.06296673 0.012761902 0.048016008 -0.042339392 -0.03730426 0.112177186 0.1270063 -0.10251964
-0.03769939 0.1470945 0.111355156 -0.03599336 -0.028585495 -0.15465166 0.0009862748 0.16368674
0.093613125 0.079559915 -0.12428368 0.08086015 -0.034290884 0.13141286 0.027999153 -0.042894006
00000000: 05d7 01be a6cd 053e 9bfb f03d cf45 fc3d
00000010: aa56 bd3d 503c 0f3e 0240 0bbd b94e e5bd
00000020: b3f4 80bd 4c17 513c 6fac 443d 126c 2dbd
00000030: 5acc 18bd 27bd e53d f10d 023e d1f5 d1bd
00000040: ad6a 1abd f19f 163e 2c0e e43d c66d 13bd
00000050: 212c eabc 015d 1ebe e445 813a 7f9d 273e
00000060: 3db8 bf3d 4ff0 a23d 7188 febd 029a a53d
00000070: 9974 0cbd 1891 063e 7b5e e53c a0b1 2fbd

blocks.0.layer_norm.weight f4 [32]
0.9791015 1.0760827 1.0304339 0.9951582 1.0244883 1.2936085 1.1103952 1.062413
1.0003816 1.2610718 1.019797 1.2436622 0.9931272 0.9979149 1.2405064 0.9960226
1.2516792 1.3703054 1.0526122 1.0265815 0.9991692 0.99926865 1.2698705 1.0785961
1.2151204 1.4318597 1.0024229 0.99222344 1.0222296 1.1024792 1.0461646 0.99479544
00000000: 65a6 7a3f 14bd 893f 42e5 833f b0c2 7e3f
00000010: 6f22 833f f794 a53f 6e21 8e3f 26fd 873f
00000020: 810c 803f cd6a a13f b588 823f 5330 9f3f
00000030: 963d 7e3f 5a77 7f3f eac8 9e3f 56fb 7e3f
00000040: 0637 a03f 2b66 af3f ffbb 863f 0667 833f
00000050: 8dc9 7f3f 12d0 7f3f 1e8b a23f 700f 8a3f
00000060: 1189 9b3f 2e47 b73f 654f 803f 5b02 7e3f
00000070: 6bd8 823f 0a1e 8d3f b9e8 853f eaaa 7e3f

blocks.0.layer_norm.bias f4 [32]
-0.013759325 0.05886526 0.013098357 -0.006276057 0.025929026 0.2706957 0.068118274 0.06631075
-0.0013882439 0.26278588 0.0021644006 0.24927497 -0.015167096 -0.0061971755 0.25000444 -0.011678394
0.24603614 0.3043876 0.027938163 0.020851178 -0.00095518917 -0.018519986 0.27474293 0.04693518
0.24904789 0.33241957 0.011209937 -0.011884412 0.016005859 0.01598959 0.031414703 -0.018157637
00000000: cb6e 61bc b31c 713d 7e9a 563c 62a7 cdbb
00000010: 1c69 d43c a098 8a3e 9881 8b3d eecd 873d
00000020: bcf5 b5ba df8b 863e 9ed8 0d3b f041 7f3e
00000030: 697f 78bc ad11 cbbb 9500 803e bc56 3fbc
00000040: e6f0 7b3e b1d8 9b3e 93de e43c 17d0 aa3c
00000050: a965 7aba 3ab7 97bc 1bab 8c3e 1a3f 403d
00000060: 6906 7f3e e632 aa3e e2a9 373c d6b6 42bc
00000070: b81e 833c 9afc 823c b4ac 003d 53bf 94bc

last_layer.weight f4 [1, 32]
-0.08653091 0.051948495 0.105713 0.0030177725 0.15040293 -0.35146275 0.26942858 0.094140194
0.079758584 -0.3168348 0.18680699 -0.35851166 0.017210724 0.026981346 -0.34859505 -0.037456468
-0.4014708 -0.3431096 0.05692529 0.13102229 0.062736474 0.16733496 -0.2892959 0.16807437
-0.31573206 -0.3786649 -0.06323833 -0.038244616 0.015563467 0.17170803 0.16377151 -0.006606331
00000000: 1e37 b1bd f2c7 543d 0f80 d83d d2c5 453b
00000010: 3a03 1a3e edf2 b3be 8bf2 893e 93cc c03d
00000020: 7858 a33d 2c38 a2be 554a 3f3e d78e b7be
00000030: 81fd 8c3c fc07 dd3c 0d7b b2be f46b 19bd
00000040: 958d cdbe 10ac afbe 7e2a 693d b52a 063e
00000050: fb7b 803d db59 2b3e 981e 94be b01b 2c3e
00000060: a2a7 a1be 5ee0 c1be 1983 81bd 63a6 1cbd
00000070: e9fd 7e3c 3bd4 2f3e b8b3 273e ec79 d8bb
